data.pth (torch, 5015 bytes, 6 tensors)

l1.weight f4 [8, 54]
0	0xbe077966	-0.13229904
1	0xbdc00d6c	-0.0937756
2	0xbbe701e0	-0.007049784
3	0x3d97b62a	0.07407792
4	0xbc9a39c4	-0.018826373
5	0xbe03cdbb	-0.12871449
6	0x3df52040	0.11969042
7	0x3df59504	0.11991313
8	0xbe066655	-0.13124974
9	0xbdc477b9	-0.09593148
10	0x3d692cd4	0.056927517
11	0x3d1864d8	0.037205547
12	0x3dc90dc0	0.09817076
13	0x3c77e3e0	0.015130013
14	0x3c732130	0.0148394555
15	0xbd8a2425	-0.06745175
16	0x3d3b4a50	0.045725167
17	0xbcc73088	-0.024315134
18	0xbdaf93d3	-0.08573117
19	0xbd45d1b0	-0.048295677
20	0x3c83b110	0.01607564
21	0xbcf09398	-0.029367253
22	0xbd99e59a	-0.07514496
23	0x3de3d684	0.111249
24	0xbdcb172e	-0.099165305
25	0x3cfb0ff0	0.030647248
26	0x3dc09bc2	0.094047084
27	0xbe0997d1	-0.1343682
28	0x3df4283c	0.119217366
29	0xbda40666	-0.08009033
30	0xbd9d1ecf	-0.07671892
31	0xbdeac263	-0.114628576
32	0x3d9db946	0.07701354
33	0xbd99cc94	-0.07509723
34	0x3d945d26	0.07244329
35	0x3dd8aff2	0.10580434
36	0x3ddbf3ea	0.10739882
37	0x3d938868	0.07203752
38	0x3d5da3cc	0.054111287
39	0xbdcb6fe3	-0.0993345
40	0xbdaab9d0	-0.08336222
41	0xbd875dcf	-0.066096894
42	0xbd569f10	-0.052397788
43	0xbd3b866a	-0.045782484
44	0x3dcf5f6a	0.10125621
45	0xbd5d57ea	-0.05403892
46	0xbe019e91	-0.12658145
47	0xbda27737	-0.07932895
48	0xbd90f274	-0.07077494
49	0x3dfd0b9c	0.1235573
50	0xbd18f022	-0.037338383
51	0xbccb1de8	-0.024794534
52	0xbddbab4b	-0.10726031
53	0x3ddb9656	0.10722034
54	0xbdb4dfa8	-0.088317215
55	0x3bff34a0	0.007788256
56	0x3e06e0b6	0.13171658
57	0xbd9fe3a6	-0.07807092
58	0xbd7364ea	-0.05942241
59	0xbdde68aa	-0.10859807
60	0xbd3ec9fa	-0.04657934
61	0x3e03539c	0.12824863
62	0x3d325fec	0.04354851
63	0x3da7b4b6	0.08188765
64	0x3d30ae1c	0.043134794
65	0x3df21ae4	0.11821535
66	0xbbe57100	-0.007001996
67	0xbd8d4c4e	-0.068993196
68	0xbde2ddd4	-0.110774666
69	0x3d27b7d8	0.04094681
70	0xbc8cea40	-0.017201543
71	0x3d496c14	0.049175337
72	0xbd862a41	-0.06551028
73	0x3d320afc	0.043467507
74	0x3d5070cc	0.05088882
75	0xbe05de24	-0.13073021
76	0x3d634f44	0.055495515
77	0x3ceb48e8	0.028721288
78	0x3db9b0ba	0.09066911
79	0xbe0a4e27	-0.13506375
80	0xbdb790ca	-0.08963163
81	0x3de0e462	0.109810606
82	0x3df31d78	0.11870855
83	0xbdc530e6	-0.09628467
84	0x3dc47c2e	0.09593998
85	0x3caa5f00	0.020797253
86	0x3d74ea24	0.059793606
87	0x3dc184a6	0.09449129
88	0xbdf5da46	-0.12004523
89	0xbddd2716	-0.10798471
90	0xbca106f8	-0.019656643
91	0xbdc6f600	-0.097148895
92	0x3df3bf7c	0.11901757
93	0xbca885bc	-0.020571582
94	0x3cb7ba30	0.022427648
95	0xbcded1c0	-0.027199626
96	0x3c4457c0	0.011983812
97	0xbcbb1560	-0.02283734
98	0xbe0705ef	-0.13185857
99	0xbdcd8574	-0.1003522
100	0x3d9dd290	0.07706177
101	0xbdc6da28	-0.09709579
102	0xbd4be850	-0.049782097
103	0x3d8477fe	0.06468199
104	0x3e08e1d0	0.1336739
105	0x3dba7192	0.09103693
106	0xbd91aa40	-0.07112551
107	0xbdd237af	-0.10264527
108	0x3e074bd0	0.13212514
109	0x3dc43bca	0.09581716
110	0xbd1457a2	-0.036216386
111	0xbdb83ef6	-0.08996384
112	0xbc4c38e0	-0.012464732
113	0x3d8ea2c2	0.06964637
114	0xbc27bc50	-0.010237768
115	0xbdfe95fe	-0.124309525
116	0x3cb49430	0.022043318
117	0xbc842564	-0.01613111
118	0xbcc1190c	-0.023571514
119	0xbda6d922	-0.081468835
120	0xbd5ca9e2	-0.05387295
121	0xbc3edf18	-0.011649869
122	0x3dd8ca12	0.10585417
123	0x3d7781c8	0.060426503
124	0xbd820db6	-0.063502714
125	0x3d6e4268	0.0581688
126	0x3c5737f0	0.013135895
127	0xbd6162e4	-0.05502595
128	0x3d86f07a	0.06588836
129	0x3b9d3ba0	0.0047983676
130	0xbe091551	-0.13387038
131	0xbd3c5482	-0.04597903
132	0xbdc78cc2	-0.09743644
133	0xbd790ee0	-0.0608052
134	0xbdb3264a	-0.087475374
135	0x3d330320	0.043704152
136	0x3dc0567a	0.09391494
137	0xbd643b28	-0.05572048
138	0xbdee27d8	-0.11628693
139	0x3d84ec48	0.064903796
140	0x3d14f1ac	0.03636329
141	0x3d9f1a8c	0.07768735
142	0xbdb09cda	-0.08623667
143	0x3c600b00	0.013674498
144	0xbdf1b671	-0.11802376
145	0xbd9fe493	-0.07807269
146	0x3e0084fe	0.12550732
147	0xbc025750	-0.007955387
148	0xbda139b1	-0.07872332
149	0x3d5c08b4	0.053719237
150	0xbdaa4026	-0.083130166
151	0xbcec45e8	-0.028841928
152	0xbdb67626	-0.08909254
153	0xbd1a5aa8	-0.037684113
154	0x3df775a4	0.12082985
155	0xbdbff9e4	-0.09373835
156	0x3e00e22a	0.12586275
157	0x3d454f3c	0.048171267
158	0x3dc9aece	0.098477945
159	0x3dbc186a	0.09184344
160	0x3d4779d4	0.04870017
161	0xbe00f7ae	-0.12594482
162	0x3c90f298	0.017693803
163	0xbd5f13ba	-0.054462172
164	0x3cf43208	0.029809013
165	0xbda8bd59	-0.0823924
166	0x3d21c364	0.03949298
167	0x3d033d6c	0.032041
168	0x3be00bc0	0.006837338
169	0x3d1ef7dc	0.038810596
170	0xbdcca412	-0.099922314
171	0x3d88b7c4	0.066756755
172	0xbdb8bce6	-0.090204045
173	0x3de17150	0.11007941
174	0xbda6f099	-0.08151359
175	0x3ce10860	0.027469814
176	0xbbcb14c0	-0.006197542
177	0xbd8a48bc	-0.06752154
178	0xbe01ee7a	-0.12688628
179	0xbe0a0193	-0.13477163
180	0x3dac98ce	0.08427583
181	0x3c624af0	0.013811812
182	0x3d8f23f4	0.069892794
183	0xbd84c285	-0.06482414
184	0xbce98398	-0.028505132
185	0x3b0b1880	0.002122432
186	0xbe01c7c6	-0.12673864
187	0xbdad95c0	-0.08475828
188	0xbcf5a204	-0.029984482
189	0x3d8ff3b4	0.070289046
190	0x3d15edac	0.036603615
191	0xbd852e64	-0.06502989
192	0x3d998848	0.07496697
193	0xbdb7668a	-0.08955105
194	0x3daf79f4	0.085681826
195	0x3ddc1d16	0.10747735
196	0x3d467614	0.04845245
197	0xba565e00	-0.0008177459
198	0xbd1d5c84	-0.038418308
199	0xbdc3df0a	-0.09564026
200	0x3dbe40d4	0.09289709
201	0xbd7df3a8	-0.061999947
202	0x3de98300	0.114019394
203	0x3dc75b56	0.09734218
204	0x3db5f2a8	0.08884174
205	0x3e095ef8	0.13415134
206	0x3db698a2	0.08915831
207	0xbd5c46d4	-0.053778484
208	0x3d3ee5f0	0.046606004
209	0xbdc2592e	-0.09489666
210	0x3d5ff790	0.054679453
211	0x3d6b8950	0.057504
212	0x3dca6350	0.098822236
213	0xbdf3af14	-0.11898628
214	0xbd730b6c	-0.059337065
215	0xbde50d83	-0.11184218
216	0xbd4e9272	-0.05043263
217	0x3d754d10	0.059887946
218	0xbdf6d34c	-0.120520204
219	0x3db62ec2	0.08895637
220	0xbced131c	-0.028939776
221	0x3cf88da8	0.030340984
222	0x3c19f630	0.009397075
223	0x3de775d2	0.11301769
224	0x3d3d90c4	0.046280637
225	0xbd4a17dc	-0.04933916
226	0xbe010cc6	-0.12602529
227	0x3d881122	0.06643893
228	0xbddd865c	-0.10816643
229	0xbcaaf1c4	-0.020867236
230	0x3d06d250	0.032915413
231	0x3d4b314c	0.04960756
232	0xbc8106b8	-0.015750274
233	0x3c126250	0.008934572
234	0x39c59600	0.00037686527
235	0xbdd33413	-0.10312667
236	0x3d2b1868	0.041771322
237	0x3e07fd70	0.13280272
238	0xbc47b730	-0.012189671
239	0x3e0a437e	0.13502309
240	0xbd1ada90	-0.037806094
241	0xbd17be1a	-0.03704653
242	0xbcc8bed8	-0.024505064
243	0x3cdc0570	0.026858062
244	0x3dc2ede8	0.09518033
245	0x3dc419ee	0.09575258
246	0xbdaae698	-0.083447635
247	0x3d2f96ec	0.04286854
248	0x3cd29f18	0.025710627
249	0xbc762150	-0.015022591
250	0x3da53352	0.08066429
251	0x3b5566c0	0.0032562464
252	0x3c8c8cc8	0.017156973
253	0x3d23bae0	0.03997314
254	0xbdaa4cec	-0.08315453
255	0x3d365fec	0.044525072

l1.bias f4 [8]
0	0xbd759cf6	-0.059964143
1	0xbda16a4c	-0.07881603
2	0xbd04e73e	-0.032447092
3	0xbdd86b28	-0.105673134
4	0xbd1e5cbe	-0.038662665
5	0xbdac219e	-0.084048495
6	0x3df57c14	0.11986557
7	0x3d8a345a	0.067482665

l2.weight f4 [8, 8]
0	0x3c3db440	0.0115786195
1	0x3d9e1644	0.077190906
2	0x3d5c2070	0.053741872
3	0x3e5341d2	0.20630577
4	0xbe58a41c	-0.21156353
5	0x3ea80c75	0.32822004
6	0x3de08fc8	0.10964924
7	0x3e250202	0.16114047
8	0x3e82d733	0.2555481
9	0xbdb9ad78	-0.0906629
10	0x3c3867e0	0.0112552345
11	0xbe423590	-0.18965745
12	0x3ea699fd	0.3253936
13	0xbe899c5d	-0.26877108
14	0xbea95b06	-0.33077258
15	0xbea8ac10	-0.32943773
16	0xbe265a4d	-0.16245385
17	0x3e678e22	0.22612813
18	0xbe3048c2	-0.17215255
19	0x3d809910	0.06279194
20	0x3e9399e5	0.2882835
21	0x3b7bc580	0.003841728
22	0xbbfa1f00	-0.00763309
23	0x3ea29d89	0.31760815
24	0xbe4eac1d	-0.20182844
25	0x3e430b1a	0.19047204
26	0xbd259188	-0.040421993
27	0xbdc2dcc4	-0.09514764
28	0xbe79eb44	-0.24406153
29	0x3ded831c	0.11597273
30	0x3e16303e	0.1466684
31	0x3e969097	0.29407188
32	0x3ea3bce3	0.31980047
33	0xbde77946	-0.11302428
34	0xbe98a6c8	-0.29814744
35	0xbe496de5	-0.19670828
36	0xbe578baf	-0.21049379
37	0x3db233d0	0.08701289
38	0xbd28b7b8	-0.041190833
39	0xbd5f2f78	-0.05448863
40	0x3e8768bd	0.26447096
41	0xbe7840d8	-0.24243486
42	0x3c768c60	0.015048116
43	0x3ea7d41d	0.32779017
44	0xbd3a9010	-0.045547545
45	0x3e11fe40	0.14257145
46	0x3e82f8eb	0.25580534
47	0xbe0d642a	-0.13807741
48	0x3df2de8c	0.11858854
49	0x3cbdb4e0	0.023157537
50	0x3e28d2ea	0.16486707
51	0xbdf78b00	-0.12087059
52	0xbe747cc0	-0.23875713
53	0xbe959a35	-0.29219213
54	0x3e888ba3	0.26669034
55	0xbe9a8537	-0.3017976
56	0xbea82b4e	-0.3284554
57	0x3e71ddfa	0.23619834
58	0x3dda9550	0.1067301
59	0xbe115fd3	-0.1419671
60	0x3e613d42	0.21996024
61	0xbe8e943c	-0.2784747
62	0x3e9d4f31	0.3072448
63	0x3d2591a0	0.040422082

l2.bias f4 [8]
0	0xbdb5dee0	-0.08880401
1	0x3e6c17da	0.23055974
2	0x3e689d42	0.22716239
3	0xbeaeddaa	-0.3415349
4	0xbea1ffc0	-0.31640434
5	0xbd9c6f64	-0.076384336
6	0x3eac7ccf	0.3368897
7	0x3d8d7514	0.069070965

l3.weight f4 [7, 8]
0	0x3e74bde2	0.2390056
1	0xbe48f3c9	-0.19624247
2	0xbe7d07c1	-0.24709989
3	0x3da516e8	0.0806101
4	0x3e985809	0.29754665
5	0x3e374832	0.17898634
6	0xbe90639d	-0.28201
7	0xbdba692c	-0.09102091
8	0xbd0bbe70	-0.034117162
9	0x3cbab0a0	0.0227893
10	0x3e8cda2b	0.275102
11	0xbe91ac18	-0.2845161
12	0x3e751f42	0.23937705
13	0x3e0a5e0c	0.13512439
14	0x3ea86553	0.32889804
15	0x3d7a9bf0	0.06118387
16	0x3e0dd3d6	0.1385034
17	0x3c3446c0	0.011003196
18	0xbe35f84e	-0.17770502
19	0x3e6c9af2	0.23105982
20	0xbdc38ce8	-0.0954836
21	0x3ccab6f0	0.024745435
22	0x3e8506fd	0.25981894
23	0x3e9a0af5	0.30086485
24	0x3e809365	0.25112453
25	0x3ca8b6b0	0.020594925
26	0x3eb4bff5	0.35302702
27	0xbc3fc6c0	-0.011705101
28	0xbe603d04	-0.21898276
29	0x3eaedfd5	0.34155145
30	0xbe425e90	-0.18981385
31	0x3e158fc4	0.14605623
32	0xbe6981ae	-0.22803375
33	0x3e22b386	0.15888795
34	0xbe1c4028	-0.15258849
35	0xbe4a0063	-0.1972671
36	0xbe3daa5f	-0.18522023
37	0x3e85d141	0.2613621
38	0xbe49841a	-0.19679299
39	0xbdd7bf6c	-0.10534558
40	0x3e9b152b	0.30289587
41	0xbe70c1b1	-0.23511387
42	0xbeacba5c	-0.3373593
43	0x3e89c2bf	0.26906392
44	0xbeb2f25f	-0.3495054
45	0xbe13dc58	-0.14439523
46	0x3d95d4b4	0.073159605
47	0x3eb4eef1	0.35338548
48	0x3e48ac8a	0.19597068
49	0x3e737052	0.23773316
50	0x3e912519	0.28348616
51	0xbe597c57	-0.21238838
52	0xbe967521	-0.29386237
53	0x3eab088b	0.33404955
54	0xbe85d524	-0.26139176
55	0x3dc80ddc	0.097682685

l3.bias f4 [7]
0	0xbe675305	-0.22590263
1	0xbc484940	-0.012224495
2	0x3e2afe12	0.16698483
3	0xbe91af2e	-0.28453964
4	0x3e8859dd	0.2663106
5	0xbdd70a8a	-0.10500057
6	0x3d801278	0.06253523
